DeepONet_training_d4_n70_nx128_k120/Phase_new.pth (torch, 198250 bytes, 20 tensors)

weight f4 [70, 1]
0.001019779 -0.004842223 -0.20355815 -0.019560667 -0.07187414 -0.20748778 0.0018923766 -0.10586935
0.27714932 0.12069196 0.0129895685 -0.089119434 0.0035258941 -0.102477536 0.007522777 -0.026107408
0.2127607 -0.03796298 0.10171776 -0.01290258 0.011880026 0.01231387 -0.09164301 -0.105097465
0.101454124 0.087487854 -0.029391887 0.03691996 0.07633188 -0.12137417 0.14981927 0.03745044
-0.004747027 0.019934615 0.07434322 0.18025856 0.007602616 0.03783755 -0.018065605 0.07304242
0.026164372 0.0071472325 -0.13046117 0.0817242 0.10746496 0.08120546 -0.18661736 -0.27243784
-0.24613576 0.16101927 -0.046133593 0.24480547 0.24787402 0.09297089 -0.0038495238 -0.027349267
0.005893279 -0.09804002 0.20003013 0.23040576 -0.052163955 -0.00080518087 0.009200744 0.03238637
0.045508362 0.0020256322 -0.03811726 0.0037653684 -0.012753099 0.08910314
00000000: 1baa 853a 83ab 9ebb 8c71 50be b13d a0bc
00000010: c032 93bd ad77 54be 9f09 f83a 08d2 d8bd
00000020: 84e6 8d3e 592d f73d 33d2 543c 4084 b6bd
00000030: b012 673b bedf d1bd a181 f63b 34df d5bc
00000040: f1dd 593e 127f 1bbd 6751 d03d 5865 53bc
00000050: 71a4 423c 1dc0 493c 55af bbbd 573d d7bd
00000060: 2ec7 cf3d d52c b33d 41c7 f0bc 6239 173d
00000070: e453 9c3d 0593 f8bd 396a 193e a265 193d
00000080: f38c 9bbb eb4d a33c 4241 983d b395 383e
00000090: 5e1f f93b 8cfb 1a3d 52fe 93bc 4497 953d
000000a0: aa56 d63c 5533 ea3b 9d97 05be 045f a73d
000000b0: 9716 dc3d 0c4f a63d 9f18 3fbe f97c 8bbe
000000c0: 030b 7cbe 3ce2 243e 94f6 3cbd 49ae 7a3e
000000d0: b0d2 7d3e 8667 be3d 4b48 7cbb 920b e0bc
000000e0: 681c c13b 35c9 c8bd b3d4 4c3e 7def 6b3e
000000f0: dfa9 55bd c612 53ba b8be 163c 92a7 043d
00000100: fa66 3a3d 78c0 043b d820 1cbd 66c4 763b
00000110: 60f2 50bc b57b b63d

bias f4 [70]
0.0023599372 0.01063619 0.07786172 0.008390021 0.025782522 0.09512237 8.188599e-05 0.06360337
-0.09906793 -0.04533258 -0.015349569 0.024470683 -0.0036714026 0.049116816 0.007840373 0.011851961
-0.0874517 0.01567214 -0.058730654 -0.009110487 -0.0065466063 0.0047528967 0.02861219 0.036119435
-0.033809774 -0.0517906 0.030798074 -0.018075004 -0.038213953 0.053221527 -0.059391033 -0.028022954
0.0021009643 -0.014515876 -0.044022676 -0.0819585 0.010128834 -0.018145775 -0.006624766 -0.044231635
0.0031896266 -0.00083406514 0.059724804 -0.03739471 -0.046809155 -0.030906497 0.07298687 0.10347575
0.0861365 -0.06352481 0.037574135 -0.08612596 -0.08265435 -0.031703163 0.008617152 -0.0012517817
0.007445375 0.03567056 -0.067065865 -0.08573501 0.0355191 0.013877184 0.004295965 -0.009703861
-0.024204304 0.0016826494 0.021144804 -0.002834938 0.021936236 -0.05082477
00000000: 2da9 1a3b 6a43 2e3c f775 9f3d 4c76 093c
00000010: de35 d33c 84cf c23d 35ba ab38 7c42 823d
00000020: 20e4 cabd a8ae 39bd c27c 7bbc be76 c83c
00000030: ea9b 70bb b72e 493d e874 003c ba2e 423c
00000040: e019 b3bd dc62 803c 8e8f 70bd 2744 15bc
00000050: ea84 d6bb 30be 9b3b 1d64 ea3c f9f1 133d
00000060: 1e7c 0abd 6122 54bd 3e4c fc3c 0812 94bc
00000070: 3c86 1cbd d1fe 593d 0344 73bd 6590 e5bc
00000080: 55b0 093b ffd3 6dbc 1f51 34bd dcd9 a7bd
00000090: 69f3 253c 73a6 94bc 9114 d9bb 3b2c 35bd
000000a0: 0e09 513b 2aa5 5aba ffa1 743d 322b 19bd
000000b0: f5ba 3fbd 9f2f fdbc 247a 953d 18eb d33d
000000c0: 5568 b03d 4c19 82bd 56e7 193d cf62 b0bd
000000d0: af46 a9bd 2ddb 01bd f52e 0d3c d312 a4ba
000000e0: 55f8 f33b 4b1b 123d d459 89bd d695 afbd
000000f0: 7a7c 113d 215d 633c 2bc5 8c3b f1fc 1ebc
00000100: 1b48 c6bc 588c dc3a de37 ad3c 5eca 39bb
00000110: 9fb3 b33c a22d 50bd

weight f4 [70, 70]
-0.10956595 -0.019575898 -0.15681137 0.09864456 -0.057452433 -0.06955819 -0.031826675 0.1005666
-0.034396686 -0.18248983 0.08716954 -0.26046506 0.037403356 0.10357635 -0.015796777 -0.012625914
0.105554245 -0.06390117 0.071103856 -0.03843381 0.18268383 0.01335094 -0.01295699 0.04297967
0.11828457 -0.09329327 0.008483734 0.2865477 -0.041429825 0.22132961 -0.100918755 -0.012823779
-0.17445762 -0.029425908 -0.0030925022 -0.09444794 0.015580307 -0.2203208 -0.044956513 0.026984112
-0.02717379 -0.14118503 0.07219955 0.020571483 -0.11559444 0.04772185 -0.092201985 0.10002253
0.063037224 -0.10324704 -0.11655012 -0.0040600724 0.025447035 0.08094092 0.102173656 -0.087716356
0.028401831 0.032716326 0.25040668 -0.011103293 -0.024660224 -0.073052585 0.115651004 0.03024809
-0.0047773416 0.27858385 -0.066492155 -0.023514695 0.06234131 0.10493941 -0.22367218 0.17379092
0.05449892 0.24415068 0.16026068 0.06336661 -0.08361964 0.17674953 0.042792313 -0.0044329297
0.1522849 0.012551285 -0.047450114 -0.031083437 0.027330453 -0.017361702 0.06275739 0.019681845
-0.071308196 -0.14800897 -0.055510763 -0.019227177 0.100166254 -0.09080042 -0.22093327 -0.11543165
-0.05126192 0.009506874 -0.12976348 -0.07471341 -0.13921534 -0.17341256 0.18749844 -0.08964239
-0.1259537 0.22671203 0.11330834 -0.017770479 0.017170155 -0.13735838 -0.025133971 0.085825466
-0.19483136 0.085347064 0.06317648 -0.07328719 0.007581285 -0.06783727 0.033431217 -0.06155874
0.07436916 -0.027528536 -0.11826235 -0.009877401 0.059330508 -0.08150141 0.17718811 0.01080549
0.071619056 0.09924024 0.013583754 -0.07551627 0.05439935 -0.1324613 0.05701928 0.15508851
0.2064255 0.04650091 0.21151254 -0.08542586 0.055364415 0.05511602 0.14806847 0.17262042
-0.07503862 0.16633467 -0.18192562 0.12861475 -0.064247936 0.15290362 -0.068691224 0.0027428165
-0.12762125 0.04309574 -0.08047006 -0.13047712 -0.11859275 -0.017548388 0.21680236 0.2468327
0.008723936 0.10470711 -0.14521518 -0.043883245 0.011457102 -0.047052335 -0.08005334 -0.104665875
0.029686205 0.030910471 0.094275944 -0.017259357 -0.011993916 0.014236332 0.14369896 0.1334927
-0.14494558 -0.033013806 0.09249869 -0.016881065 0.023260832 -0.032297246 -0.013612578 0.027247876
-0.1616868 -0.1144635 0.09351737 0.035694283 0.16168123 0.06798535 -0.1841728 -0.0034091268
-0.026032908 0.15212081 0.081653684 0.008607015 -0.0733646 -0.08452474 0.013810987 0.020187642
0.15898827 -0.12481743 0.13329208 -0.029474638 0.039660607 0.14869142 -0.09991886 -0.018149856
0.018394252 -0.11894776 -0.08082367 -0.03485778 0.07657332 0.036540225 0.17936905 -0.15167391
-0.17938286 -0.09890325 0.001330378 0.13747266 -0.04387938 0.047342047 -0.06759351 0.06501846
0.03774156 -0.00095764955 0.005235043 0.0059909467 -0.049410634 0.103299044 0.05623608 0.05186131
-0.05964181 -0.025083177 -0.037380956 0.034459583 -0.011860556 0.19493233 -0.049868215 -0.10201349
-0.06455475 0.14532772 0.04728022 0.049093265 0.07456724 0.00726504 -0.17177412 -0.04364546
-0.051838715 0.11421314 -0.19149351 0.031203939 0.030125752 0.009420626 -0.13774918 0.03834265
00000000: 1d64 e0bd a25d a0bc 2993 20be 2906 ca3d
00000010: 3e53 6bbd 8674 8ebd b05c 02bd ddf5 cd3d
00000020: 8ae3 0cbd 9dde 3abe f285 b23d ad5b 85be
00000030: 4334 193d d61f d43d 3e68 81bc ecdc 4ebc
00000040: d32c d83d 9ede 82bd e69e 913d c56c 1dbd
00000050: 7811 3b3e e7bd 5a3c 8e49 54bc 730b 303d
00000060: 2e3f f23d 8b10 bfbd 5cff 0a3c 61b6 923e
00000070: 52b2 29bd 3ba4 623e 7eae cebd d41a 52bc
00000080: 05a5 32be 9a0e f1bc 94ab 4abb ec6d c1bd
00000090: 8b44 7f3c c79b 61be 5224 38bd c90d dd3c
000000a0: 919b debc cf92 10be 5cdd 933d 8785 a83c
000000b0: c7bc ecbd fd77 433d 65d4 bcbd 9dd8 cc3d
000000c0: a919 813d 2f73 d3bd d4b1 eebd 5b0a 85bb
000000d0: 4d76 d03c 5ac4 a53d 6c40 d13d a2a4 b3bd
000000e0: f5aa e83c 8e01 063d 4e35 803e 96ea 35bc
000000f0: 3d04 cabc 989c 95bd 6fda ec3d d8ca f73c
00000100: 3f8b 9cbb 8ba2 8e3e 0a2d 88bd e4a1 c0bc
00000110: 9a59 7f3d 79ea d63d 520a 65be 3ff6 313e
00000120: 423a 5f3d a302 7a3e 601b 243e 5ac6 813d
00000130: c640 abbd d4fd 343e fe46 2f3d 1c42 91bb
00000140: 93f0 1b3e e8a3 4d3c 0d5b 42bd b1a2 febc
00000150: 1de4 df3c 213a 8ebc f286 803d d23b a13c
00000160: 080a 92bd aa8f 17be 415f 63bd 5082 9dbc
00000170: f723 cd3d 92f5 b9bd 553c 62be 6e67 ecbd
00000180: 05f8 51bd b8c2 1b3c b8e0 04be 5803 99bd
00000190: 778e 0ebe 1093 31be 97ff 3f3e 6e96 b7bd
000001a0: 02fa 00be 3327 683e 340e e83d 6593 91bc
000001b0: 6da8 8c3c ada7 0cbe c2e5 cdbc 43c5 af3d
000001c0: df81 47be 71ca ae3d ac62 813d 9817 96bd
000001d0: 6e6c f83b 44ee 8abd 2cef 083d 0425 7cbd
000001e0: dc4e 983d 8683 e1bc 8833 f2bd d3d4 21bc
000001f0: 8c04 733d 36ea a6bd cd70 353e 8309 313c
00000200: 03ad 923d 783e cb3d 658e 5e3c 46a8 9abd
00000210: dad1 5e3d efa3 07be 0c8d 693d 86cf 1e3e
00000220: 3561 533e bd77 3e3d be96 583e c1f3 aebd
00000230: ccc5 623d 56c1 613d 439f 173e 68c3 303e
00000240: d9ad 99bd a353 2a3e b64a 3abe 96b3 033e
00000250: 6c94 83bd c492 1c3e fcad 8cbd d3c0 333b
00000260: 25af 02be 2985 303d 7dcd a4bd cb9b 05be
00000270: c1e0 f2bd a3c1 8fbc 7001 5e3e b6c1 7c3e
00000280: d7ee 0e3c ae70 d63d 4ab3 14be ebbe 33bd
00000290: 92b6 3b3c f3b9 40bd 01f3 a3bd 105b d6bd
000002a0: 7c30 f33c f537 fd3c bf13 c13d 7f63 8dbc
000002b0: 2182 44bc 813f 693c d225 133e 4fb2 083e
000002c0: 9d6c 14be 7c39 07bd f46f bd3d 294a 8abc
000002d0: 808d be3c 1e4a 04bd 4a07 5fbc f036 df3c
000002e0: 3991 25be d76b eabd 0986 bf3d 2b34 123d
000002f0: c48f 253e e73b 8b3d cb97 3cbe a86b 5fbb
00000300: f742 d5bc 8fc5 1b3e 0c3a a73d 7004 0d3c
00000310: 2e40 96bd 4f1b adbd 7a47 623c 8e60 a53c
00000320: d2cd 223e 48a0 ffbd b87d 083e cc74 f1bc
00000330: 2973 223d 9042 183e 42a2 ccbd 02af 94bc
00000340: 8baf 963c e29a f3bd e186 a5bd 08c7 0ebd
00000350: 79d2 9c3d 34ab 153d 85ac 373e 6850 1bbe
00000360: 24b0 37be ca8d cabd 1460 ae3a a2c5 0c3e
00000370: ddba 33bd bce9 413d 776e 8abd 6628 853d
00000380: e596 1a3d c60a 7bba b98a ab3b b44f c43b
00000390: ce62 4abd 738e d33d ce57 663d 866c 543d
000003a0: f84a 74bd 3c7b cdbc c61c 19bd 7e25 0d3d
000003b0: c752 42bc 579c 473e 9d42 4cbd 73ec d0bd
000003c0: 4835 84bd cad0 143e e7a8 413d 0516 493d
000003d0: b6b6 983d 930f ee3b 8ee5 2fbe 95c5 32bd
000003e0: d554 54bd 94e8 e93d e016 44be 679f ff3c
000003f0: 48ca f63c f858 1a3c 1f0e 0dbe 2f0d 1d3d

bias f4 [70]
-0.0120112505 -0.015627762 0.023689318 0.007713314 0.005852949 -0.011286455 0.009003097 0.021337697
-0.00057397544 0.01926649 -0.015099344 0.015997456 0.024562797 0.004603404 -0.004231075 0.0017471719
0.017305061 0.0011094951 -0.010437937 0.017738746 0.0098068565 -0.001757897 -0.01410142 -0.006737986
-0.0022438534 0.008706589 0.01758639 0.016004734 -0.007416756 0.0008109385 0.0075458363 -0.009683239
0.0034543436 -6.270326e-05 -0.0063999984 0.021540003 -0.010029608 -0.00028676193 -0.027388968 0.017396983
0.0030287018 -0.0065205907 0.0003513681 -0.00080893235 0.004634122 -0.013604744 -0.0128903715 -6.690665e-05
0.026119683 0.02612817 0.017424041 0.0023970194 0.009065095 0.024111224 -0.020533796 -0.0012284106
0.017419206 0.01583492 0.0012024365 -0.015711632 0.020378048 0.017249634 0.012239918 -0.021098657
-0.009843618 0.006812059 -0.0058136424 -0.025899675 0.017744586 -0.012072083
00000000: d6ca 44bc cb05 80bc 1a10 c23c f8bf fc3b
00000010: 18ca bf3b d3ea 38bc ba81 133c 65cc ae3c
00000020: d776 16ba c2d4 9d3c 3d63 77bc 190d 833c
00000030: eb37 c93c 27d8 963b d4a4 8abb 5c01 e53a
00000040: 58c3 8d3c 7a6c 913a e203 2bbc d950 913c
00000050: f0ac 203c 3c69 e6ba a409 67bc 53ca dcbb
00000060: 9d0d 13bb 15a6 0e3c 5511 903c 5c1c 833c
00000070: 4208 f3bb 2995 543a 1043 f73b 73a6 1ebc
00000080: 4562 623b 8e7f 83b8 14b7 d1bb a974 b03c
00000090: 3a53 24bc 8958 96b9 d45e e0bc 1e84 8e3c
000000a0: 2f7d 463b aeaa d5bb d437 b839 880e 54ba
000000b0: d5d9 973b 6fe6 5ebc 2332 53bc 3c50 8cb8
000000c0: f2f8 d53c be0a d63c ddbc 8e3c 5017 1d3b
000000d0: c485 143c e784 c53c 7e36 a8bc 9f02 a1ba
000000e0: b9b2 8e3c 3cb8 813c 139b 9d3a aeb5 80bc
000000f0: ddef a63c 1b4f 8d3c f089 483c 17d7 acbc
00000100: 2047 21bc b137 df3b 5e80 bebb 8e2b d4bc
00000110: 185d 913c fcc9 45bc

weight f4 [70, 70]
-0.122341014 -0.09119885 -0.012242915 -0.043950148 0.045080304 0.012269264 0.025222113 -0.03936188
-0.1490075 0.13890333 0.02764434 0.020653645 -0.055910137 -0.10390062 -0.1982502 -0.18624593
-0.06832205 0.09459891 -0.035083566 0.1081733 -0.04731065 -0.1337863 -0.018798769 0.047340292
0.11184901 0.12529142 0.06198874 -0.0071688476 -0.04619811 -0.073970445 0.14164706 -0.026439954
-0.1419653 0.13954213 -5.1030638e-05 0.0053565586 -0.07046202 -0.08551137 0.059365142 0.024249282
0.08797106 0.1325623 -0.012646112 -0.08270322 0.04274394 -0.119427264 0.070684664 -0.10556449
-0.22714455 0.10729859 -0.057000797 0.0021433064 -0.09948596 0.026562871 -0.07451189 0.050790127
-0.19163448 0.067803614 0.062069766 -0.076361574 -0.034842554 0.099475086 0.058101483 -0.09885739
0.05095691 0.059809394 0.14278583 -0.10576374 -0.21492556 0.028500019 0.1041105 0.008202111
-0.06687803 -0.1148281 0.025809085 0.11728254 -0.22889619 0.13875905 -0.014783004 -0.0068060346
0.07719973 -0.01661578 0.06079717 0.005959099 0.033478677 0.14937614 0.0020219928 -0.23510352
0.027303036 -0.078725375 -0.0867347 0.012046927 0.29631594 -0.22500367 -0.028764697 0.19618699
-0.07416818 0.11867885 0.055999164 0.11007962 -0.030523118 -0.11756071 0.058804203 -0.13293609
0.02837051 0.050215628 -0.08417948 0.016835058 -0.009949267 -0.15341076 -0.18912563 -0.1020607
-0.084157296 -0.07140707 -0.16535845 0.17272478 -0.1098228 -0.076277666 0.12755454 0.03300436
0.121854916 -0.06289661 0.081389055 0.02165373 -0.23048416 0.0664744 0.12256504 0.10001547
0.061024744 0.10891856 -0.104626834 -0.1566612 -0.0329821 0.10319128 0.0060152295 -0.031140098
0.000880961 0.008888449 -0.104427725 0.13254383 -0.14865972 -0.0606794 0.057584386 -0.1351098
-0.025956187 0.09131293 -0.08277371 0.021750538 -0.051329833 -0.030948522 -0.085711636 0.15738687
-0.01894466 0.11179674 0.21219988 -0.058195356 0.12846771 0.123682 0.046700332 0.08536205
0.10856922 0.026504831 -0.013768193 -0.0041794693 0.1311655 0.08666195 0.13969217 0.20922013
-0.03200501 0.13859655 -0.027914556 0.14784467 -0.08201274 -0.041021578 -0.026275748 -0.09296465
-0.030498944 0.16826113 0.0636323 -0.025151012 -0.14645551 0.14034677 0.15039796 0.103621796
0.040420778 0.0390805 0.053425245 -0.10011846 0.023191737 0.10968854 -0.016275844 -0.043148607
0.015507395 -0.10751458 0.07569432 -0.0015741287 0.033698052 -0.09064448 -0.045831654 -0.18460134
0.045156512 -0.14989428 0.11028236 -0.10731617 0.03817471 0.17014559 -0.047476754 -0.02252877
0.053338606 0.06308835 0.027754935 0.064248025 0.044041786 0.20010926 0.08860229 0.058311984
-0.00746098 0.030081635 -0.12075701 -0.007230691 0.12175497 0.04118567 0.086323015 -0.2661489
0.20924303 0.055403028 0.08978322 0.064778194 -0.15084004 0.1531462 -0.043652404 -0.06396885
0.2468622 -0.011298993 -0.037925452 0.06586475 -0.081430495 0.10334732 0.031752743 -0.00601057
0.10108648 0.025012664 0.08891728 0.038106564 -0.03356393 0.073235735 -0.030130615 -0.079093084
-0.007260983 -0.021191796 -0.23763949 0.04972072 0.10055034 0.025847834 0.008228839 -0.0008946743
00000000: ed8d fabd 76c6 babd 8296 48bc 1205 34bd
00000010: 20a6 383d 0605 493c 9b9e ce3c ec39 21bd
00000020: 6c95 18be ad3c 0e3e 6276 e23c d531 a93c
00000030: 0702 65bd d9c9 d4bd 1a02 4bbe 41b7 3ebe
00000040: 6eec 8bbd 13bd c13d c9b3 0fbd f789 dd3d
00000050: d0c8 41bd 47ff 08be e0ff 99bc e5e7 413d
00000060: 1811 e53d 654c 003e e8e7 7d3d a7e8 eabb
00000070: 3b3a 3dbd d17d 97bd ed0b 113e 9a98 d8bc
00000080: 5a5f 11be 22e4 0e3e bb09 56b8 1286 af3b
00000090: 644e 90bd 9620 afbd dd28 733d 6ea6 c63c
000000a0: 2c2a b43d 69be 073e a331 4fbc 4e60 a9bd
000000b0: 4514 2f3d 4896 f4bd 1fc3 903d 3232 d8bd
000000c0: 9598 68be 5dbf db3d ab79 69bd b776 0c3b
000000d0: 4cbf cbbd 619a d93c b199 98bd 4f09 503d
000000e0: d43b 44be 9fdc 8a3d de3c 7e3d 7563 9cbd
000000f0: 11b7 0ebd 98b9 cb3d d2fb 6d3d be75 cabd
00000100: 31b8 503d b2fa 743d 7336 123e a99a d8bd
00000110: 7215 5cbe df78 e93c e337 d53d 2662 063c
00000120: 59f7 88bd ff2a ebbd 936d d33c d431 f03d
00000130: c363 6abe da16 0e3e 6a34 72bc 2805 dfbb
00000140: e41a 9e3d d11d 88bc 7406 793d 8c44 c33b
00000150: f020 093d 0ff6 183e 6983 043b fabe 70be
00000160: 9eaa df3c c53a a1bd f6a1 b1bd 7960 453c
00000170: b9b6 973e 5d67 66be f1a3 ebbc 3ee5 483e
00000180: 7de5 97bd e60d f33d 615f 653d 6c71 e13d
00000190: 9e0b fabc abc3 f0bd addc 703d 6620 08be
000001a0: 4669 e83c e7ae 4d3d 4b66 acbd ade9 893c
000001b0: 4002 23bc b617 1dbe 26aa 41be 3305 d1bd
000001c0: a95a acbd df3d 92bd ba53 29be c4de 303e
000001d0: c7ea e0bd 7737 9cbd a89d 023e 942f 073d
000001e0: 128f f93d f0cf 80bd 4eaf a63d 2a63 b13c
000001f0: 0a04 6cbe bb23 883d 6103 fb3d e9d4 cc3d
00000200: 15f5 793d b210 df3d 9846 d6bd cb6b 20be
00000210: 3d18 07bd f355 d33d 671b c53b 8519 ffbc
00000220: 4bf0 663a dba0 113c 34de d5bd 92b9 073e
00000230: 413a 18be f68a 78bd 9bdd 6b3d 395a 0abe
00000240: 12a2 d4bc 4602 bb3d 4385 a9bd 2f2e b23c
00000250: 3b3f 52bd c187 fdbc 9589 afbd 062a 213e
00000260: d531 9bbc b0f5 e43d ed4a 593e 415e 6ebd
00000270: 0a8d 033e fd4c fd3d d948 3f3d 4cd2 ae3d
00000280: 8a59 de3d a920 d93c fd93 61bc eef3 88bb
00000290: 4050 063e d27b b13d 770b 0f3e cd3d 563e
000002a0: af17 03bd 41ec 0d3e 11ad e4bc 9864 173e
000002b0: 4cf6 a7bd 3e06 28bd 3d40 d7bc 4064 bebd
000002c0: ecd8 f9bc a54c 2c3e a751 823d 7f09 cebc
000002d0: 6ff8 15be 10b7 0f3e ec01 1a3e aa37 d43d
000002e0: 4290 253d e012 203d 6ed4 5a3d e80a cdbd
000002f0: 99fc bd3c 63a4 e03d eb54 85bc 98bc 30bd
00000300: bb12 7e3c 9b30 dcbd a005 9b3d ff52 ceba
00000310: f806 0a3d d0a3 b9bd f9b9 3bbd 2208 3dbe
00000320: 09f6 383d e37d 19be b8db e13d 95c8 dbbd
00000330: 165d 1c3d a53a 2e3e fc76 42bd 418e b8bc
00000340: 9579 5a3d 7734 813d 515e e33c 7894 833d
00000350: 2965 343d 71e9 4c3e 1e75 b53d 8cd8 6e3d
00000360: 3d7b f4bb c36d f63c 744f f7bd 6fef ecbb
00000370: ab5a f93d 4eb2 283d 1fca b03d ab44 88be
00000380: ce43 563e 49ee 623d 44e0 b73d 6eaa 843d
00000390: d075 1abe 5cd2 1c3e ddcc 32bd 1a02 83bd
000003a0: 72c9 7c3e 691f 39bc b857 1bbd 19e4 863d
000003b0: 08c5 a6bd c2a7 d33d 2a0f 023d 51f4 c4bb
000003c0: 6e06 cf3d 5ce7 cc3c 431a b63d a115 1c3d
000003d0: 557a 09bd 9efc 953d 7bd4 f6bc 8efb a1bd
000003e0: 8aed edbb 6b9a adbc c457 73be f4a7 4b3d
000003f0: 56ed cd3d d6be d33c 41d2 063c 9388 6aba

bias f4 [70]
0.003647251 -0.01220847 -0.00561709 -0.005581426 0.010067835 -0.010517818 0.0042875614 -0.007158629
-0.005088692 -0.0020355182 0.0033285923 0.017878907 -0.0065553766 -0.014853398 0.01378119 -0.0063436003
0.01749473 -0.008760784 0.009344381 0.008133019 0.014894894 0.0015451463 0.010746144 0.005353161
-0.0020182643 0.00422313 0.017020127 0.0012293864 -0.009317016 -0.006154419 -0.00094532955 0.0031052157
-0.008196911 0.0025176713 0.0060396465 -0.0076610455 -0.010602243 -0.010859958 0.010500777 -0.005865978
-0.0032683313 0.013782311 -0.0004620526 0.011010264 -0.0036116354 -0.004450004 0.004434607 -0.008598529
-7.767817e-05 0.0023453492 0.013887546 0.010143478 -0.0067578857 0.018190714 0.0054888977 0.013849776
-0.0019619945 0.006567779 -0.008590738 0.004208468 -0.0026162923 0.013200793 0.008300473 -0.010138919
0.014243775 -0.012404572 -0.0071318336 -0.000666014 -0.0025926188 0.0057589966
00000000: b806 6f3b 0906 48bc 910f b8bb 65e4 b6bb
00000010: 90f3 243c ed52 2cbc ac7e 8c3b ef92 eabb
00000020: 0bbf a6bb 5466 05bb 8324 5a3b c976 923c
00000030: 7cce d6bb ab5b 73bc 80ca 613c fadd cfbb
00000040: 1c51 8f3c 6489 0fbc 2d19 193c 5b40 053c
00000050: b709 743c 8286 ca3a 9810 303c 9269 af3b
00000060: db44 04bb 2f62 8a3b cb6d 8b3c 5d23 a13a
00000070: 66a6 18bc 02ab c9bb fecf 77ba e080 4b3b
00000080: 564c 06bc 84ff 243b 3ae8 c53b 8209 fbbb
00000090: 08b5 2dbc f7ed 31bc 730b 2c3c 6437 c0bb
000000a0: 8031 56bb 34cf 613c a63f f2b9 6564 343c
000000b0: 30b1 6cbb 57d1 91bb 2e50 913b d8e0 0cbc
000000c0: 26e7 a2b8 6eb4 193b 9788 633c d530 263c
000000d0: 4171 ddbb b104 953c 36dc b33b 2cea 623c
000000e0: ce94 00bb 8636 d73b 2bc0 0cbc 30e7 893b
000000f0: 1a76 2bbb 2448 583c b5fe 073c b51d 26bc
00000100: b95e 693c 8c3c 4bbc 28b2 e9bb 7197 2eba
00000110: ede8 29bb f7b5 bc3b

weight f4 [70, 70]
-0.286824 -0.16566223 -0.05152172 -0.012081584 0.005480144 -0.121998735 -0.08657723 -0.2327718
0.07909259 0.048696417 -0.10359648 0.048875324 -0.13292515 -0.080482274 -0.0716986 0.1261757
-0.01877327 0.18924682 -0.013317172 0.021980153 0.030958248 0.006802011 -0.024893204 0.057462852
0.047353607 -0.041328944 0.023089133 -0.07793952 0.006477994 -0.035582647 -0.035360727 -0.0054668854
-0.0586316 0.16507824 -0.061188392 0.02888543 0.04225621 -0.015429855 -0.06478536 0.123892576
-0.24210884 0.06610704 0.07227457 -0.066445775 -0.07440631 -0.16245271 -0.12295737 -0.061769422
0.10773897 -0.16436091 -0.07404544 -0.084732495 -0.09894092 -0.09712733 -0.0421873 -0.11830966
0.008769277 0.098489605 -0.045966983 0.013650689 0.002938704 -0.0636351 0.015436317 0.1603706
-0.17664069 0.09666796 -0.05506442 0.03293341 -0.0010454762 0.007589901 -0.039649945 0.031117754
0.03169138 0.08194577 -0.008478899 0.04506896 -0.14317115 -0.1755547 -0.08699316 0.0034721023
0.11346659 -0.09344121 -0.06827393 -0.2016061 -0.2519179 0.205152 0.12380096 -0.023109093
-0.05885444 -0.094903186 -0.08324673 -0.09133415 0.043259375 -0.069330305 -0.09560843 0.18369593
0.006607926 -0.1771798 0.06964683 -0.013986957 -0.023649378 -0.09090827 0.04027163 -0.08307847
0.024750296 -0.13693608 -0.034153942 -0.031361096 -0.13019668 0.012827231 -0.01847118 -0.2228916
0.11562257 -0.11254455 -0.034414925 0.0048821857 -0.2626047 -0.08321902 -0.045900438 -0.0677257
-0.012265012 0.059599396 -0.047215078 0.017471556 0.22534542 -0.089222185 0.19654822 0.057538018
0.012349808 -0.022984939 -0.07882958 -0.102592885 0.091000184 0.070779674 0.11188654 0.20870736
-0.13600707 -0.029610537 0.09540776 -0.20643266 -0.17778207 -0.0953666 0.13241829 0.20710373
0.12253713 -0.17418703 0.16032748 0.21606648 0.03176389 -0.06076284 0.080168486 0.017148705
-0.0040404564 -0.039305 -0.029669976 -0.034681924 0.11261676 0.18451235 -0.076780416 0.172632
-0.047053233 -0.06269049 0.03608032 -0.054248814 -0.0032925536 0.036673877 -0.05740695 0.1308273
0.12587114 0.109407105 -0.027860934 0.021416323 0.09020612 -0.019186154 -0.015998976 0.19261311
-0.0436194 -0.05038023 0.08865659 -0.02620923 -0.26025033 -0.092278086 0.18498567 -0.085003056
-0.12932119 -0.011855395 0.10198621 -0.018972894 -0.03839121 0.16251898 -0.07468653 -0.10665402
-0.019058045 0.0054444014 -0.057043307 0.03917193 0.0019244546 -0.02257977 -0.044341523 0.022329992
0.010442256 -0.07043795 -0.05934685 -0.01674355 -0.0073435493 0.05105035 -0.048679873 -0.05352599
0.15052283 -0.039678216 -0.005847946 0.17219405 0.040706445 0.036009453 -0.0012661448 -0.11003002
-0.06091621 -0.12823695 0.02215734 -0.11893275 -0.14818038 -0.019848501 -0.07757078 0.06308095
-0.014715567 0.07242829 0.1915491 -0.05366876 -0.026194789 0.04649303 -0.21001807 -0.15491347
-0.0064031905 0.044506703 -0.10767886 0.061864223 -0.14693712 0.01737998 -0.040370803 -0.08802773
-0.05975452 0.0044575417 0.013714429 0.04023885 -0.09954862 -0.103838734 -0.050633516 0.106138594
-0.20483813 -0.19994235 -0.06231457 -0.013312484 0.028787686 -0.12500462 -0.034009315 0.10083383
00000000: 98da 92be 5ca3 29be 7008 53bd d6f1 45bc
00000010: c892 b33b 79da f9bd 674f b1bd bb5b 6ebe
00000020: 4cfb a13d e575 473d 642a d4bd 7e31 483d
00000030: 881d 08be e4d3 a4bd b7d6 92bd 3434 013e
00000040: 67ca 99bc ebc9 413e 4530 5abc b90f b43c
00000050: 279c fd3c 67e3 de3b d5ec cbbc 2b5e 6b3d
00000060: dbf5 413d 8a48 29bd 6c25 bd3c c19e 9fbd
00000070: 5a45 d43b 1cbf 11bd 69d6 10bd 8f23 b3bb
00000080: b027 70bd 450a 293e aea0 7abd 23a1 ec3c
00000090: d914 2d3d 81cd 7cbc 30ae 84bd 64bb fd3d
000000a0: 61eb 77be 2163 873d b104 943d b914 88bd
000000b0: 5662 98bd 015a 26be 13d1 fbbd ef01 7dbd
000000c0: 40a6 dc3d 3a4e 28be 23a5 97bd 3b88 adbd
000000d0: 89a1 cabd b2ea c6bd 97cc 2cbd 564c f2bd
000000e0: 03ad 0f3c ebb4 c93d e047 3cbd 24a7 5f3c
000000f0: 4697 403b 1f53 82bd 9be8 7c3c 3138 243e
00000100: 4ce1 34be daf9 c53d 3b8b 61bd 2fe5 063d
00000110: 5c08 89ba b4b4 f83b fb67 22bd a9ea fe3c
00000120: d2ce 013d 2fd3 a73d 14eb 0abc 3b9a 383d
00000130: 759b 12be 9cc4 33be 7829 b2bd 368c 633b
00000140: 2c61 e83d 1b5e bfbd 34d3 8bbd d471 4ebe
00000150: 62fb 80be 5e13 523e 5c8b fd3d 484f bdbc
00000160: 5a11 71bd 9a5c c2bd 437d aabd 660d bbbd
00000170: be30 313d 0cfd 8dbd 5ace c3bd c91a 3c3e
00000180: 4d87 d83b 9f6e 35be ffa2 8e3d 8d29 65bc
00000190: 57bc c1bc 1d2e babd ddf3 243d 0b25 aabd
000001a0: 22c1 ca3c f938 0cbe 01e5 0bbd 7e74 00bd
000001b0: 4752 05be 4e29 523c df50 97bc b23d 64be
000001c0: 87cb ec3d c27d e6bd aaf6 0cbd befa 9f3b
000001d0: 2074 86be bc6e aabd 1902 3cbd c6b3 8abd
000001e0: 30f3 48bc 7f1e 743d 9964 41bd 8220 8f3c
000001f0: f3c0 663e 1fba b6bd f043 493e fcac 6b3d
00000200: d956 4a3c e94a bcbc 6771 a1bd 381c d2bd
00000210: 4e5e ba3d eff4 903d c524 e53d 62b7 553e
00000220: 7045 0bbe cc91 f2bc 2565 c33d 1563 53be
00000230: 810c 36be 904f c3bd a998 073e 0013 543e
00000240: bff4 fa3d 165e 32be e32c 243e 8840 5d3e
00000250: da1a 023d 75e2 78bd 602f a43d 717b 8c3c
00000260: ce65 84bb 48fe 20bd 730e f3bc a20e 0ebd
00000270: 9ea3 e63d cef0 3c3e 0d3f 9dbd 71c6 303e
00000280: e4ba 40bd df63 80bd f5c8 133d 0134 5ebd
00000290: e2c7 57bb 5937 163d 8d23 6bbd 97f7 053e
000002a0: 5de4 003e d510 e03d 9d3c e4bc 4971 af3c
000002b0: fcbd b83d 482c 9dbc 4910 83bc 5f3c 453e
000002c0: 42aa 32bd 805b 4ebd 9691 b53d bdb4 d6bc
000002d0: 883f 85be 4bfc bcbd e26c 3d3e 1516 aebd
000002e0: c66c 04be 213d 42bc 25de d03d 0b6d 9bbc
000002f0: 1a40 1dbd 606b 263e 40f5 98bd 6c6d dabd
00000300: 9e1f 9cbc f366 b23b 3ea6 69bd bf72 203d
00000310: fb3d fc3a 36f9 b8bc 759f 35bd 63ed b63c
00000320: ff15 2b3c c641 90bd af15 73bd c529 89bc
00000330: 28a2 f0bb 2c1a 513d 8c64 47bd 123e 5bbd
00000340: a822 1a3e a085 22bd 20a0 bfbb a353 303e
00000350: cdbb 263d a67e 133d c5f4 a5ba 6b57 e1bd
00000360: 4783 79bd 8c50 03be 4f83 b53c 0393 f3bd
00000370: 99bc 17be 5399 a2bc 6edd 9ebd 9630 813d
00000380: 9019 71bc 4955 943d 7325 443e c6d3 5bbd
00000390: 7496 d6bc 7a6f 3e3d fa0e 57be a3a1 1ebe
000003a0: dbd1 d1bb a94c 363d bc86 dcbd 5765 7d3d
000003b0: af76 16be 7660 8e3c db5b 25bd e247 b4bd
000003c0: 28c1 74bd 9210 923b 7cb2 603c 7ed1 243d
000003d0: 26e0 cbbd 67a9 d4bd 1765 4fbd 315f d93d
000003e0: 16c1 51be b0bd 4cbe 903d 7fbd 9b1c 5abc
000003f0: 27d4 eb3c 3601 00be 5a4d 0bbd f881 ce3d

bias f4 [70]
0.010950997 -0.005027268 0.009682867 -0.014588893 -0.0088228965 0.01749297 0.009772853 0.010938989
-0.005365797 -0.010329514 -0.008024906 -0.00053283456 -0.011675749 0.022386786 -0.012011308 -0.0036941161
-0.013696611 0.0080999695 0.0015571223 0.00016237714 -0.0055118874 -0.0063292272 0.00900568 0.0042530987
-0.0007330446 0.007443897 0.018327177 0.007026905 -0.007902044 -0.002337342 0.0034800083 -0.009958902
0.0003652796 0.008050268 0.017431913 0.009021171 -0.012428783 -0.019492798 0.008528012 -0.005278232
-0.0034019859 0.008949108 -0.015329631 -0.010641803 0.010748417 -0.011987633 0.0072156945 -0.006458176
-0.0079833735 0.011734519 0.006099333 -0.006926919 -0.010323992 -0.011170765 -0.0048931814 -0.014542953
-0.005542094 0.022742579 0.00599433 -0.011045223 -0.0073129786 0.0116313 -0.004388064 0.008423058
0.018189052 0.011873175 -0.010473256 0.00493098 0.00061077945 -0.008893459
00000000: cf6b 333c c8bb a4bb e3a4 1e3c 4106 6fbc
00000010: e98d 10bc 6b4d 8f3c 511e 203c 7239 333c
00000020: 91d3 afbb 1f3d 29bc e57a 03bc ecad 0bba
00000030: a44b 3fbc 7e64 b73c 14cb 44bc fc18 72bb
00000040: c067 60bc bcb5 043c 5b18 cc3a c843 2a39
00000050: 109d b4bb 6865 cfbb 8f8c 133c 945d 8b3b
00000060: ca29 40ba efeb f33b e022 963c f441 e63b
00000070: 9377 01bc 172e 19bb da10 643b aa2a 23bc
00000080: ff82 bf39 45e5 033c 5fcd 8e3c 89cd 133c
00000090: 18a2 4bbc 5caf 9fbc 13b9 0b3c 05f5 acbb
000000a0: daf3 5ebb 489f 123c 2229 7bbc f55a 2ebc
000000b0: 211a 303c c767 44bc a271 ec3b 1b9f d3bb
000000c0: b2cc 02bc 2442 403c eadc c73b 35fb e2bb
000000d0: f625 29bc 9605 37bc fb56 a0bb 9145 6ebc
000000e0: 749a b5bb a54e ba3c 166c c43b 06f7 34bc
000000f0: b6a1 efbb 3591 3e3c c0c9 8fbb de00 0a3c
00000100: 3501 953c b587 423c 0598 2bbc 0f94 a13b
00000110: b71c 203a dfb5 11bc

weight f4 [120, 70]
0.101889804 0.054073133 -0.059143573 0.029567279 0.18088081 0.10322805 -0.07260179 0.10011992
0.01006137 -0.1798222 0.14129843 -0.017018413 0.12176297 -0.011808092 0.04845521 0.047537137
0.034958705 -0.12287076 0.08373595 0.18119001 0.042610038 0.06687125 -0.080789894 0.010728597
0.045582693 -0.07914164 0.122116424 0.03292614 0.045322787 -0.061703563 -0.06998947 -0.15666614
0.017432487 -0.1839708 0.07793534 0.13322693 0.0070218397 -0.03419378 0.13452742 0.009252731
0.019652583 0.004870027 0.09102375 -0.099984966 -0.17349106 0.00044262657 0.23469049 -0.15441005
-0.19027783 0.060036577 -0.07647871 -0.09212505 0.24545133 -0.0040298505 -0.009722989 -0.18045214
-0.076001294 -0.08386589 -0.118900545 -0.06317893 0.083064616 0.075496204 0.06803555 0.037394013
0.16652736 -0.15724695 0.059382003 0.19553094 0.12870869 0.021407383 -0.11888399 0.13898104
0.2228174 -0.03486716 -0.094445795 0.01757576 -0.10537291 0.06875655 0.054701786 0.012945869
-0.0029032633 0.027168501 0.016262071 -0.06347401 0.06522042 -0.0878661 0.075832225 -0.10957352
-0.07681134 0.0812398 0.08006917 -0.033183645 0.2482821 -0.019262275 -0.24825579 0.12262426
-0.012320595 0.032337856 -0.052526746 -0.12853992 -0.19238944 0.037646577 0.053380053 0.090008445
-0.0661441 0.04828313 0.054387115 -0.052289825 -0.075119324 -0.14204773 -0.0992928 -0.0672523
-0.09507075 0.06849796 -0.07126202 0.025665386 0.044158414 0.07137344 0.033380937 -0.001851863
0.10536769 0.00027341105 0.03969833 -0.029170189 0.05801284 0.27421823 -0.056777995 0.16937616
0.026937485 0.21882102 -0.034541145 -0.09321151 0.06308906 0.13584155 0.07677194 -0.035815455
0.0041597597 0.105988346 -0.09448148 0.062967055 0.071621485 0.219245 0.059388727 -0.2448814
-0.117964305 -0.03172366 -0.06029608 -0.16328284 -0.0739731 0.010546095 0.0988718 -0.13763613
-0.031207569 0.013479905 0.01879317 0.2755453 -0.10799808 -0.06688982 0.08093132 0.16098498
-0.040986624 -0.06840825 -0.09273301 -0.056574345 -0.08456796 -0.13550669 -0.0065577175 0.048661448
-0.032391265 0.00063399033 -0.018023394 0.080197155 -0.12292963 0.07898391 -0.019895397 0.17548904
-0.18569373 -0.09180794 0.052820284 -0.060545124 -0.1076465 -0.015424812 -0.10725009 -0.034469713
-0.03037703 -0.10238246 -0.087994896 0.26420394 0.04513586 0.048631698 -0.07438029 -0.14318347
-0.055931017 0.054896094 -0.11353758 0.11011665 0.077601455 -0.080356464 0.099993184 -0.0685442
0.05596498 -0.075105354 0.23962052 -0.03629053 0.102745906 0.057585966 0.07188424 0.0010889369
-0.016657818 -0.06981279 -0.015335813 -0.11024092 -0.09234562 0.0864074 -0.07707705 -0.118924044
0.07409355 0.07444005 -0.15647227 0.04684492 0.034034725 0.17162032 0.05204321 -0.08059088
0.067807935 -0.06535881 0.019446502 0.048253678 0.1500124 0.084333606 0.08713704 0.04648127
-0.07057166 0.068318605 -0.10315668 -0.1376539 0.016459195 -0.08822101 -0.094299845 -0.0014226502
-0.104520425 0.03037644 0.0063714725 -0.129091 -0.014282512 -0.06121686 -0.14514263 -0.09507869
-0.013960662 -0.2394306 -0.14535086 -0.11592227 0.0038327682 0.027710566 0.23634996 0.038424574
00000000: 9aab d03d ca7b 5d3d 8840 72bd 1437 f23c
00000010: d238 393e 3a69 d33d 3fb0 94bd ac0b cd3d
00000020: 72d8 243c 5023 38be 89b0 103e 336a 8bbc
00000030: dd5e f93d ba76 41bc f878 463d 4db6 423d
00000040: dc30 0f3d aaa3 fbbd c17d ab3d e089 393e
00000050: dd87 2e3d cbf3 883d 2c75 a5bd ffc6 2f3c
00000060: ebb4 3a3d 0315 a2bd 2d18 fa3d 8fdd 063d
00000070: 63a4 393d e0bc 7cbd a456 8fbd 176d 20be
00000080: 93ce 8e3c d762 3cbe 909c 9f3d a46c 083e
00000090: 7617 e63b c70e 0cbd 8ec1 093e c498 173c
000000a0: 74fe a03c bf94 9f3b a96a ba3d ebc4 ccbd
000000b0: a4a7 31be 5510 e839 b452 703e ab1d 1ebe
000000c0: 31d8 42be eae8 753d dfa0 9cbd 0fac bcbd
000000d0: 9857 7b3e d60c 84bb 2c4d 1fbc 72c8 38be
000000e0: 91a6 9bbd e1c1 abbd 2182 f3bd f463 81bd
000000f0: c81d aa3d c19d 9a3d 3956 8b3d 772a 193d
00000100: 2686 2a3e 5805 21be 8b3a 733d 4339 483e
00000110: 36cc 033e 895e af3c 7379 f3bd 0c51 0e3e
00000120: 3f2a 643e ded0 0ebd cc6c c1bd 0afb 8f3c
00000130: c1cd d7bd 3cd0 8c3d fb0e 603d e91a 543c
00000140: ad44 3ebb 7a90 de3c 0938 853c a9fe 81bd
00000150: 4992 853d 24f3 b3bd ed4d 9b3d 1568 e0bd
00000160: 444f 9dbd 0d61 a63d 4efb a33d 93eb 07bd
00000170: aa3d 7e3e ebcb 9dbc c436 7ebe 6e22 fb3d
00000180: 52dc 49bc b374 043d 4926 57bd f89f 03be
00000190: bd01 45be 4c33 1a3d 0ba5 5a3d 5956 b83d
000001a0: 8f76 87bd 88c4 453d 06c5 5e3d db2d 56bd
000001b0: 29d8 99bd f674 11be 065a cbbd 93bb 89bd
000001c0: 74b4 c2bd a948 8c3d d2f1 91bd 3740 d23c
000001d0: 74df 343d 3d2c 923d 73ba 083d 36ba f2ba
000001e0: 04cb d73d 9c58 8f39 b79a 223d 52f6 eebc
000001f0: df9e 6d3d 5566 8c3e 0b90 68bd f270 2d3e
00000200: 00ac dc3c 9e12 603e 047b 0dbd ade5 bebd
00000210: d634 813d 0c1a 0b3e 9b3a 9d3d 3ab3 12bd
00000220: 984e 883b 6b10 d93d 827f c1bd dff4 803d
00000230: 49ae 923d c381 603e 9841 733d 31c2 7abe
00000240: 4597 f1bd abf0 01bd 06f9 76bd 9e33 27be
00000250: 357f 97bd 87c9 2c3c 4c7d ca3d 7cf0 0cbe
00000260: 04a7 ffbc d2da 5c3c 22f4 993c 4614 8d3e
00000270: 192e ddbd 88fd 88bd 52bf a53d 3fd9 243e
00000280: 97e1 27bd a019 8cbd ceea bdbd 80ba 67bd
00000290: f731 adbd 44c2 0abe 1fe2 d6bb 3a51 473d
000002a0: b4ac 04bd 5f32 263a cca5 93bc 683e a43d
000002b0: 88c2 fbbd 51c2 a13d acfb a2bc 66b3 333e
000002c0: 7f26 3ebe cd05 bcbd 155a 583d 2afe 77bd
000002d0: c575 dcbd 5ab8 7cbc efa5 dbbd 1d30 0dbd
000002e0: 40d9 f8bc e5ad d1bd ab36 b4bd bd45 873e
000002f0: 61e0 383d 0832 473d b254 98bd b09e 12be
00000300: ec17 65bd bada 603d 6486 e8bd d784 e13d
00000310: 83ed 9e3d ee91 a4bd 3ac9 cc3d e760 8cbd
00000320: 893b 653d d6d0 99bd 155f 753e 61a5 14bd
00000330: 726c d23d 43df 6b3d 0b38 933d a9ba 8e3a
00000340: fa75 88bc 02fa 8ebd 1043 7bbc fec5 e1bd
00000350: b31f bdbd 5df6 b03d 93da 9dbd 738e f3bd
00000360: 5cbe 973d 0674 983d 443a 20be 75e0 3f3d
00000370: ff67 0b3d 3dbd 2f3e 432b 553d d50c a5bd
00000380: e3de 8a3d d7da 85bd 454e 9f3c a6a5 453d
00000390: da9c 193e 19b7 ac3d e874 b23d 2563 3e3d
000003a0: e087 90bd a0ea 8b3d cf43 d3bd 25f5 0cbe
000003b0: 6fd5 863c 38ad b4bd 4720 c1bd 3878 baba
000003c0: ce0e d6bd 03d8 f83c c9c7 d03b 6e30 04be
000003d0: 3201 6abc 88be 7abd 45a0 14be 9eb8 c2bd
000003e0: 43bb 64bc 4c2d 75be dbd6 14be a868 edbd
000003f0: 2e2f 7b3b 4501 e33c b905 723e 1663 1d3d

bias f4 [120]
0.0064989845 7.320372e-05 0.012686524 -0.0027855556 0.012446739 -0.0045178584 0.0059070177 -0.007701796
-0.018264506 -0.007548042 0.008183222 -0.005997943 0.043100372 0.011013891 -0.02889456 0.0015368115
-0.027125897 0.011881772 0.01543416 0.00740182 -0.012351332 0.000577294 -0.0047439453 0.0072556166
-0.009345938 0.08615803 0.02975084 -0.012552855 0.028896887 -0.0016128174 0.0031847865 0.065637164
0.039782457 -0.0072048963 0.007016424 -0.008900013 0.03823299 0.0051283524 0.0071876645 0.008920086
-0.007464966 -0.060258374 -0.008844859 0.024756521 0.000502542 -0.0068358644 0.043932624 -0.008863903
0.005775523 0.007690409 -0.013033754 -0.0052235792 -0.0053810542 -0.00071080466 0.006347763 -0.009766286
-0.0070376024 0.0063199988 -0.0040054917 -0.0071398043 0.012243206 0.009979373 0.0017833821 -0.00809619
-0.009653769 0.007959012 0.037518922 0.004066485 0.00064334716 -0.05270709 -0.0024199034 -0.0064504216
0.018331934 -0.010363799 0.0149817625 0.009940001 0.031518083 -0.0075312653 -0.011473154 0.00613177
-0.0005232496 0.0046493867 0.006960645 0.0016624633 0.006266522 -0.0072858296 0.0047748187 -0.011171906
0.006431793 0.012775886 0.008402663 0.0051513272 0.009681079 0.0638164 -0.007389824 -0.011568397
-0.007395238 0.00045567853 -0.036733698 -0.07825603 0.0064674728 0.056615114 0.0007239142 0.012733217
-0.015114711 0.005327429 -0.0060538272 0.0048102387 -0.0060608247 0.0046226983 0.012074582 -0.004593419
-0.004668981 -0.009159872 0.012598822 -0.0037376506 0.041732214 0.03758929 -0.0310572 0.03841655
00000000: 6ff5 d43b f384 9938 23db 4f3c de8d 36bb
00000010: 68ed 4b3c 8b0a 94bb a88f c13b 595f fcbb
00000020: 729f 95bc 9155 f7bb ec12 063c 658a c4bb
00000030: 048a 303d 9b73 343c 49b4 ecbc d66e c93a
00000040: 2137 debc c4ab 423c 8fdf 7c3c f78a f23b
00000050: 3e5d 4abc 8b55 173a 1973 9bbb 86c0 ed3b
00000060: b51f 19bc 9f73 b03d 09b8 f33c 7daa 4dbc
00000070: 2ab9 ec3c 2c65 d3ba dab7 503b c76c 863d
00000080: eef2 223d 0d17 ecbb 08ea e53b 5cd1 11bc
00000090: 329a 1c3d bd0b a83b 8086 eb3b 8d25 123c
000000a0: ac9c f4bb 7cd1 76bd 07ea 10bc 30ce ca3c
000000b0: 06bd 033a 63ff dfbb b2f2 333d e739 11bc
000000c0: 9940 bd3b d4ff fb3b 878b 55bc 8f2a abbb
000000d0: 8e53 b0bb 4b55 3aba e500 d03b c602 20bc
000000e0: b09b e6bb fe17 cf3b 8040 83bb 05f5 e9bb
000000f0: ba97 483c 8680 233c 60c0 e93a e2a5 04bc
00000100: d82a 1ebc 8466 023c 71ad 193d 2640 853b
00000110: 4ca6 283a 64e3 57bd 3e97 1ebb 0f5e d3bb
00000120: da2c 963c eccc 29bc 1176 753c 63db 223c
00000130: 1b19 013d d5c8 f6bb e5f9 3bbc 04ed c83b
00000140: b02a 09ba e259 983b 1f16 e43b 03e7 d93a
00000150: 6657 cd3b f8bd eebb 1576 9c3b 5f0a 37bc
00000160: cac1 d23b f351 513c 53ab 093c 77cc a83b
00000170: 639d 1e3c 2cb2 823d 5626 f2bb 6089 3dbc
00000180: c153 f2bb 23e8 ee39 1376 16bd b344 a0bd
00000190: 18ed d33b 40e5 673d 0fc5 3d3a fc9e 503c
000001a0: b1a3 77bc b791 ae3b 2f5f c6bb 359f 9d3b
000001b0: e299 c6bb 017a 973b 78d4 453c 6484 96bb
000001c0: 40fe 98bb 4a13 16bc 4a6b 4e3c 5ff3 74bb
000001d0: 66ef 2a3d 3af7 193d ab6b febc ac5a 1d3d

weight f4 [70, 1]
-0.14371374 0.14619125 -0.122539304 0.06400305 -0.1673264 0.07390419 0.16092217 -8.923427e-06
-0.14499676 -0.13787091 0.14888294 0.064337224 -0.016018696 -0.06940047 -0.062860265 0.14950241
-0.04430698 0.1036091 -0.5823447 -0.089196436 0.08094575 -0.016683044 0.07453182 -0.086080156
0.13796467 -0.0051609706 -0.16289534 0.15752953 -0.041199278 0.1309136 0.022473877 -0.19093673
-0.17092355 -0.12169111 0.04048665 -0.09034054 0.2130679 0.2155464 -0.05310404 0.10199894
-0.018326841 -0.13255918 0.07057799 -0.19273876 -0.04808929 -0.08798635 -0.054807346 0.012299763
0.061910227 -0.13032295 -0.015053236 0.007950467 -0.115865916 0.011492496 0.4152941 0.15276712
0.09498872 -0.15342318 0.19158018 -0.11197116 0.17568806 -0.15338947 -0.13445842 -9.044274e-06
0.61992925 -0.11257209 0.102691315 0.042002723 0.069648355 0.020155482
00000000: b229 13be 29b3 153e e3f5 fabd 0814 833d
00000010: 9d57 2bbe 145b 973d c8c8 243e d4b5 15b7
00000020: 087a 14be 082e 0dbe c574 183e 3cc3 833d
00000030: a439 83bc d521 8ebd e2bc 80bd 2917 193e
00000040: 3c7b 35bd 0231 d43d 8b14 15bf 9fac b6bd
00000050: e3c6 a53d e1aa 88bc 24a4 983d cb4a b0bd
00000060: 9c46 0d3e 5c1d a9bb 09ce 26be 6c4f 213e
00000070: 93c0 28bd 370e 063e 231b b83c eb84 43be
00000080: 9506 2fbe 3039 f9bd 54d5 253d 7604 b9bd
00000090: 792e 5a3e 32b8 5c3e 9f83 59bd d2e4 d03d
000000a0: 2c22 96bc 98bd 07be 318b 903d 4f5d 45be
000000b0: 46f9 44bd 3032 b4bd ab7d 60bd f284 493c
000000c0: 9495 7d3d 6173 05be d9a1 76bc ad42 023c
000000d0: 1c4b edbd 064b 3c3c 6ea1 d43e fc6e 1c3e
000000e0: 7289 c23d f71a 1dbe 982d 443e 2351 e5bd
000000f0: 92e7 333e 2112 1dbe 78af 09be dcbc 17b7
00000100: afb3 1e3f 328c e6bd d34f d23d 0c0b 2c3d
00000110: cca3 8e3d 1c1d a53c

bias f4 [70]
-0.10832167 -0.06348022 -0.16616008 0.072494715 -0.074553125 0.10119747 -0.15290906 -0.02063753
0.15021408 0.15816084 -0.06366531 -0.14622775 -0.08631017 0.1563563 -0.04091583 -0.030740365
-0.049586657 0.07608925 0.20760858 0.03760037 -0.09424033 0.019629732 0.09395208 0.070556715
0.0628179 -0.07940897 0.038177647 0.10760927 -0.076079234 -0.14292629 0.0908956 -0.00041213652
-0.20714411 0.049848992 0.019115306 0.009148368 -0.034394402 -0.17020321 0.04485612 0.019484192
-0.07711694 0.08067142 0.1559691 0.15464993 -0.010061755 0.22703238 -0.034738917 -0.012666664
0.14451124 -0.07997873 0.12886427 -0.013900944 0.09858512 0.045005314 0.16688526 0.13507563
0.14346988 0.17980608 0.08195852 -0.12939306 0.10469371 -0.22006433 -0.21088591 0.019052923
-0.26063642 -0.108903944 -0.015010025 0.085420564 -0.15560378 -0.0002792692
00000000: c0d7 ddbd eb01 82bd de25 2abe 1c78 943d
00000010: 4faf 98bd 9f40 cf3d 3194 1cbe 0a10 a9bc
00000020: b8d1 193e eaf4 213e f562 82bd babc 15be
00000030: 63c3 b0bd de1b 203e 5b97 27bd 38d3 fbbc
00000040: 611b 4bbd aed4 9b3d 5897 543e d802 1a3d
00000050: 1301 c1bd 88ce a03c f369 c03d 0a80 903d
00000060: aca6 803d 2ca1 a2bd 2a60 1c3d 4062 dc3d
00000070: 6ecf 9bbd 455b 12be 7927 ba3d 0714 d8b9
00000080: 961d 54be 752e 4c3d b497 9c3c 09e3 153c
00000090: 25e1 0cbd c049 2ebe 0dbb 373d 509d 9f3c
000000a0: 7cef 9dbd 0f37 a53d 5db6 1f3e 8d5c 1e3e
000000b0: 0fda 24bc 2d7b 683e 654a 0ebd d787 4fbc
000000c0: c1fa 133e e3cb a3bd fff4 033e c9c0 63bc
000000d0: ffe6 c93d 7e57 383d f8e3 2a3e 4451 0a3e
000000e0: c5e9 123e 161f 383e ded9 a73d 9d7f 04be
000000f0: a869 d63d 8b58 61be 7af2 57be e014 9c3c
00000100: 2372 85be 0809 dfbd 9cec 75bc faf0 ae3d
00000110: 9956 1fbe e16a 92b9

weight f4 [70, 70]
-0.11658789 0.05580347 0.16287111 -0.010212477 -0.2082981 0.026257684 0.23132055 -0.111905746
-0.14888135 -0.24870591 -0.027439207 -0.022693776 -0.017424759 -0.042633757 0.029387025 0.22550057
-0.14977017 -0.07399203 0.006446485 -0.13866061 -0.002269001 0.096459806 0.002578393 -0.044146247
0.101230815 -0.1522286 -0.0136588635 -0.036815576 -0.03709668 -0.16676597 0.07460652 -0.028863758
0.09835107 -0.21607934 0.2329651 -0.14895965 0.07457042 0.040533267 -0.124593705 -0.10123829
0.19229597 0.058207713 0.10565994 -0.035553347 0.049328458 0.0018029308 0.08820803 0.0630063
0.029421043 0.048763752 -0.044742394 0.13411207 0.06953706 0.12143707 -0.31213018 -0.029974775
0.21292114 -0.24199986 0.14503267 -0.22637756 0.037101816 0.16383025 -0.099742204 0.0013896442
-0.27950114 0.02268551 -0.023414392 0.06682493 0.21698642 -0.0650265 -0.23096557 -0.081140056
-0.03216536 0.025328344 0.16228676 -0.11234515 0.12037961 0.038648818 0.05341501 0.13959685
0.04416854 -0.07945269 0.2849879 0.06751884 -0.25727972 0.07276055 -0.16573326 0.0017353202
0.029970352 0.04986361 0.096807174 0.13696171 -0.13403529 -0.23793809 0.014758923 0.213296
0.024810893 0.008221731 -0.093255006 0.13740222 -0.09793216 0.23357464 -0.07983845 -0.19065793
0.018452842 -0.017801475 0.15272166 0.095689885 0.13509479 0.10762436 0.048613273 -0.00087901886
-0.037784524 0.06416069 0.025752988 -0.11890434 -0.039681785 0.014356936 -0.16590278 -0.18662319
0.0892091 -0.03579586 0.16817658 0.12911925 0.019140175 0.11216061 0.11483998 -0.11851166
-0.06903934 0.0071559083 -0.16508646 -0.14954634 -0.12950255 -0.1451084 -0.21607022 0.025040695
0.0050698924 -0.10360965 0.09779932 -0.15058303 0.010602338 -0.1133136 0.115258746 0.18627517
-0.018571286 0.016418152 -0.0871441 0.058769833 -0.09438416 -0.109134175 -0.035568107 0.16697086
0.0027058225 0.1682814 0.14770333 0.17681079 -0.095857024 -0.04549333 -0.109108664 -0.15589125
0.044699598 -0.013895407 -0.08452558 -0.10848365 -0.106750526 -0.32413635 0.013102162 0.010577279
-0.055127826 -0.06094287 -0.13369155 -0.16087295 -0.16470739 -0.13824125 0.07868238 -0.13784768
-0.14250325 0.08079525 -0.12609541 -0.28475758 -0.042638477 -0.034080092 0.044925954 0.09886861
-0.15572482 0.11617069 0.064524814 0.22589606 -0.026623605 -0.15066433 0.20766225 -0.021679174
0.040386662 -0.08698979 -0.19755569 0.07172467 0.02298377 0.09908528 -0.07094009 -0.007569203
-0.2260477 -0.062333602 -0.098568015 0.06426601 0.019826056 0.05369982 0.056142163 -0.029897893
0.20591569 0.105719216 -0.13593797 -0.06741568 0.04507308 -0.10273577 -0.060722314 0.08314393
0.015282122 0.07753513 -0.102860786 0.07015187 -0.0020610814 -0.03100779 0.05735522 0.058714632
0.1183718 -0.023218306 0.0832043 -0.10329764 -0.009376546 0.02949102 0.07157739 0.13374822
-0.17370075 -0.04041406 -0.2018179 -0.07927603 -0.016326092 -0.094903275 0.2166185 0.0021165875
-0.06056066 0.03553181 -0.018137438 -0.22966895 -0.14229079 0.060354203 -0.06156866 0.01585559
-0.13726778 0.13576707 0.16134186 0.067855746 -0.09766063 0.072347045 0.02432956 -0.024882676
00000000: a2c5 eebd 2e92 643d afc7 263e 3c52 27bc
00000010: 194c 55be 5b1a d73c 4bdf 6c3e d72e e5bd
00000020: 5a74 18be c3ac 7ebe 30c8 e0bc 4ce8 b9bc
00000030: 5ebe 8ebc bca0 2ebd 0fbd f03c 9fe9 663e
00000040: 5a5d 19be 2289 97bd 093d d33b 0cfd 0dbe
00000050: 85b3 14bb b88c c53d 42fa 283b b2d2 34bd
00000060: 1a52 cf3d d0e1 1bbe 6dc9 5fbc eecb 16bd
00000070: b0f2 17bd b3c4 2abe 4ecb 983d b073 ecbc
00000080: 496c c93d e743 5dbe 678e 6e3e e188 18be
00000090: 60b8 983d 3606 263d fc2a ffbd 0556 cfbd
000000a0: 3ce9 443e 366b 6e3d 3d64 d83d 63a0 11bd
000000b0: a30c 4a3d 5250 ec3a 69a6 b43d 7209 813d
000000c0: 6604 f13c 80bc 473d cd43 37bd ad54 093e
000000d0: 7269 8e3d 00b4 f83d 87cf 9fbe a98d f5bc
000000e0: 0008 5a3e d0ce 77be 7283 143e 85cf 67be
000000f0: 13f8 173d 1ec3 273e a445 ccbd b924 b63a
00000100: c61a 8fbe f6d6 b93c 8acf bfbc 82db 883d
00000110: b031 5e3e 9d2c 85bd 3d82 6cbe c22c a6bd
00000120: d3bf 03bd 637d cf3c 802e 263e 3715 e6bd
00000130: 9689 f63d 394e 1e3d b3c9 5a3d 7af2 0e3e
00000140: 12ea 343d 18b8 a2bd efe9 913e 5147 8a3d
00000150: 2bba 83be 7c03 953d fbb5 29be af73 e33a
00000160: 6284 f53c c93d 4c3d d742 c63d b13f 0c3e
00000170: 8c40 09be 0ba6 73be 69cf 713c 446a 5a3e
00000180: 3740 cb3c 70b4 063c 7bfc bebd 2bb3 0c3e
00000190: a890 c8bd 312e 6f3e 5782 a3bd d53b 43be
000001a0: 6a2a 973c 66d4 91bc 1163 1c3e 0ff9 c33d
000001b0: 4a56 0a3e 296a dc3d b61e 473d f56d 66ba
000001c0: f2c3 1abd ae66 833d eef7 d23c 1e84 f3bd
000001d0: 5e89 22bd 5b39 6b3c 6be2 29be 261a 3fbe
000001e0: 43b3 b63d ae9e 12bd 7b36 2c3e d637 043e
000001f0: dbcb 9c3c 76b4 e53d 3931 eb3d 3eb6 f2bd
00000200: 7f64 8dbd 1c7c ea3b 6d0c 29be ad22 19be
00000210: 519c 04be 4c97 14be 8341 5dbe 2522 cd3c
00000220: 5721 a63b 4c31 d4bd 034b c83d 7032 1abe
00000230: 6eb5 2d3c f610 e8bd c70c ec3d ebbe 3e3e
00000240: cf22 98bc 5c7f 863c 9b78 b2bd a3b8 703d
00000250: 7c4c c1bd bd81 dfbd ddaf 11bd 69fa 2a3e
00000260: 2b54 313b f651 2c3e 8b3f 173e e30d 353e
00000270: b050 c4bd 3757 3abd 5d74 dfbd f5a1 1fbe
00000280: ed16 373d 90a9 63bc bf1b adbd ad2c debd
00000290: 05a0 dabd 33f5 a5be 73aa 563c 534c 2d3c
000002a0: b7cd 61bd 3b9f 79bd 70e6 08be e1bb 24be
000002b0: 0ea9 28be 1d8f 0dbe 3a24 a13d f127 0dbe
000002c0: 5fec 11be fb77 a53d 281f 01be bfcb 91be
000002d0: afa5 2ebd 9197 0bbd 4704 383d a07b ca3d
000002e0: 5476 1fbe e6ea ed3d 9625 843d 4c51 673e
000002f0: bf19 dabc c047 1abe 6aa5 543e 8698 b1bc
00000300: 7c6c 253d b427 b2bd 0a4c 4abe 62e4 923d
00000310: 7648 bc3c 39ed ca3d 0a49 91bd 1407 f8bb
00000320: 0c79 67be 8551 7fbd 07de c9bd e69d 833d
00000330: 416a a23c 58f4 5b3d 53f5 653d 6dec f4bc
00000340: 90db 523e 5183 d83d 5333 0bbe 3b11 8abd
00000350: 8d9e 383d 2267 d2bd f6b7 78bd 5d47 aa3d
00000360: de61 7a3c bdca 9e3d ada8 d2bd c9ab 8f3d
00000370: 3513 07bb 0c04 febc 4fed 6a3d c17e 703d
00000380: ea6c f23d 5134 bebc 0467 aa3d b78d d3bd
00000390: 16a0 19bc 2797 f13c 2b97 923d 4bf5 083e
000003a0: 9cde 31be 3789 25bd 5aa9 4ebe 795b a2bd
000003b0: 4cbe 85bc a65c c2bd 3dd1 5d3e 72b6 0a3b
000003c0: 740e 78bd ce89 113d f794 94bc 562e 6bbe
000003d0: adb4 11be f835 773d 6b2f 7cbd 95e3 813c
000003e0: ed8f 0cbe 8606 0b3e cd36 253e f4f7 8a3d
000003f0: 4c02 c8bd b02a 943d c94e c73c c1d6 cbbc

bias f4 [70]
-0.0018782445 -0.043886084 0.008616082 -0.0016581799 0.050114647 0.07050625 -0.025564304 -0.022842217
-0.12659864 -0.06994305 0.018796984 0.021636426 -0.0015287893 0.01153481 0.03024158 0.08330862
0.010628134 0.13985184 -0.037655257 0.03272545 -0.0013428273 -0.053727433 -0.023568174 0.059894357
-0.0336991 0.029057177 0.09552095 -0.011406007 -0.049943104 -0.12420086 0.008477826 0.07152205
0.0154432915 0.025423888 0.044062912 0.02445486 0.04062062 0.029470995 0.02412829 -0.026762348
-0.011064199 0.043872543 0.018845214 0.01087464 0.01350096 0.07452817 0.0093059605 -0.22555257
-0.026438624 -0.06447693 0.15985182 0.09174941 0.0107650515 0.006415733 -0.11980492 0.032354124
0.0527438 -0.10471952 0.0056286547 0.075726874 -0.045345426 0.117098756 -0.034176808 0.030944169
-0.10023193 0.018753767 -0.016086597 0.021808157 0.121560566 0.008549649
00000000: 6d2f f6ba e5c1 33bd 782a 0d3c 4957 d9ba
00000010: 0445 4d3d 9565 903d 3b6c d1bc 9a1f bbbc
00000020: 13a3 01be 4d3e 8fbd 22fc 993c e03e b13c
00000030: a861 c8ba 80fc 3c3c 31bd f73c b69d aa3d
00000040: a021 2e3c 5235 0f3e 663c 1abd 1f0b 063d
00000050: cf01 b0ba 4c11 5cbd 0b12 c1bc c953 753d
00000060: 1108 0abd 5109 ee3c 7da0 c33d 43e0 3abc
00000070: 2491 4cbd 055d febd 94e6 0a3c 277a 923d
00000080: dc05 7d3c c245 d03c 507b 343d 8f55 c83c
00000090: cf61 263d 286d f13c b1a8 c53c b63c dbbc
000000a0: 9d46 35bc b2b3 333d 4761 9a3c 8c2b 323c
000000b0: 2133 5d3c 3aa2 983d 0778 183c 41f7 66be
000000c0: d095 d8bc 7b0c 84bd 32b0 233e 1de7 bb3d
000000d0: e65f 303c 123b d23b 485c f5bd c285 043d
000000e0: e209 583d 3077 d6bd 9470 b83b b116 9b3d
000000f0: 20bc 39bd 79d1 ef3d fbfc 0bbd a07e fd3c
00000100: 6646 cdbd 80a1 993c 0ac8 83bc 05a7 b23c
00000110: bff4 f83d d413 0c3c
